name: "DHN"
layer {
  name: "data1"
  type: "MultiLabelData"
  top: "source_data"
  top: "source_label"
  transform_param {
    mirror: true
    crop_size: 227
    #mean_file: "data/ilsvrc12/imagenet_mean.binaryproto"
    mean_value : 104.0
    mean_value : 117.0
    mean_value : 123.0
  }
  multi_label_data_param {
    #source: "../data/coco_nuswide/dataset/use/coco_image_train.txt"
    source: "data/challenge/validation_train_list.txt"
    #source: "data/paints-image/image_train_list.txt"
    #source: "data/nus_wide2/train.txt"
    batch_size: 64
    shuffle: true
    label_num: 12
    new_height: 256
    new_width: 256
  }
}
layer {
  name: "data2"
  type: "MultiLabelData"
  top: "target_data"
  top: "target_label"
  transform_param {
    mirror: true
    crop_size: 227
    #mean_file: "data/ilsvrc12/imagenet_mean.binaryproto"
    mean_value : 104.0
    mean_value : 117.0
    mean_value : 123.0
  }
  multi_label_data_param {
    #source: "../data/coco_nuswide/dataset/use/coco_image_train.txt"
    source: "data/challenge/train_train_list.txt"
    #source: "data/paints-image/image_train_list.txt"
    #source:"data/nus_wide2/train.txt"
    batch_size: 64
    shuffle: true
    label_num: 12
    new_height: 256
    new_width: 256
  }
}
layer {
  name: "silence_label"
  type: "Silence"
  bottom: "target_label"
}


layer {
  name: "source_domain_labels"
  type: "DummyData"
  top: "source_domain_labels"
  dummy_data_param {
    data_filler {
      type: "constant"
      value: 0
    }
    num: 64
    channels: 1
    height: 1
    width: 1
  }
}
layer {
  name: "target_domain_labels"
  type: "DummyData"
  top: "target_domain_labels"
  dummy_data_param {
    data_filler {
      type: "constant"
      value: 1
    }
    num:  64
    channels: 1
    height: 1
    width: 1
  }
}

layer{
    name: "concat_data"
    type: "Concat"
    bottom: "source_data"
    bottom: "target_data"
    top: "data"
    concat_param{
        concat_dim:0
    }
}
layer {
  name: "concat_domain_labels"
  type: "Concat"
  bottom: "source_domain_labels"
  bottom: "target_domain_labels"
  top: "dc_labels"
  concat_param {
    concat_dim: 0
  }
}
layer {
  name: "conv1"
  type: "Convolution"
  bottom: "data"
  top: "conv1"
  param {
    lr_mult: 1
    decay_mult: 1
  }
  param {
    lr_mult: 2
    decay_mult: 0
  }
  convolution_param {
    num_output: 96
    kernel_size: 11
    stride: 4
    weight_filler {
      type: "gaussian"
      std: 0.01
    }
    bias_filler {
      type: "constant"
      value: 0
    }
  }
}
layer {
  name: "relu1"
  type: "ReLU"
  bottom: "conv1"
  top: "conv1"
}
layer {
  name: "pool1"
  type: "Pooling"
  bottom: "conv1"
  top: "pool1"
  pooling_param {
    pool: MAX
    kernel_size: 3
    stride: 2
  }
}
layer {
  name: "norm1"
  type: "LRN"
  bottom: "pool1"
  top: "norm1"
  lrn_param {
    local_size: 5
    alpha: 0.0001
    beta: 0.75
  }
}
layer {
  name: "conv2"
  type: "Convolution"
  bottom: "norm1"
  top: "conv2"
  param {
    lr_mult: 1
    decay_mult: 1
  }
  param {
    lr_mult: 2
    decay_mult: 0
  }
  convolution_param {
    num_output: 256
    pad: 2
    kernel_size: 5
    group: 2
    weight_filler {
      type: "gaussian"
      std: 0.01
    }
    bias_filler {
      type: "constant"
      value: 1
    }
  }
}
layer {
  name: "relu2"
  type: "ReLU"
  bottom: "conv2"
  top: "conv2"
}
layer {
  name: "pool2"
  type: "Pooling"
  bottom: "conv2"
  top: "pool2"
  pooling_param {
    pool: MAX
    kernel_size: 3
    stride: 2
  }
}
layer {
  name: "norm2"
  type: "LRN"
  bottom: "pool2"
  top: "norm2"
  lrn_param {
    local_size: 5
    alpha: 0.0001
    beta: 0.75
  }
}
layer {
  name: "conv3"
  type: "Convolution"
  bottom: "norm2"
  top: "conv3"
  param {
    lr_mult: 1
    decay_mult: 1
  }
  param {
    lr_mult: 2
    decay_mult: 0
  }
  convolution_param {
    num_output: 384
    pad: 1
    kernel_size: 3
    weight_filler {
      type: "gaussian"
      std: 0.01
    }
    bias_filler {
      type: "constant"
      value: 0
    }
  }
}
layer {
  name: "relu3"
  type: "ReLU"
  bottom: "conv3"
  top: "conv3"
}
layer {
  name: "conv4"
  type: "Convolution"
  bottom: "conv3"
  top: "conv4"
  param {
    lr_mult: 1
    decay_mult: 1
  }
  param {
    lr_mult: 2
    decay_mult: 0
  }
  convolution_param {
    num_output: 384
    pad: 1
    kernel_size: 3
    group: 2
    weight_filler {
      type: "gaussian"
      std: 0.01
    }
    bias_filler {
      type: "constant"
      value: 1
    }
  }
}
layer {
  name: "relu4"
  type: "ReLU"
  bottom: "conv4"
  top: "conv4"
}
layer {
  name: "conv5"
  type: "Convolution"
  bottom: "conv4"
  top: "conv5"
  param {
    lr_mult: 1
    decay_mult: 1
  }
  param {
    lr_mult: 2
    decay_mult: 0
  }
  convolution_param {
    num_output: 256
    pad: 1
    kernel_size: 3
    group: 2
    weight_filler {
      type: "gaussian"
      std: 0.01
    }
    bias_filler {
      type: "constant"
      value: 1
    }
  }
}
layer {
  name: "relu5"
  type: "ReLU"
  bottom: "conv5"
  top: "conv5"
}
layer {
  name: "pool5"
  type: "Pooling"
  bottom: "conv5"
  top: "pool5"
  pooling_param {
    pool: MAX
    kernel_size: 3
    stride: 2
  }
}
layer {
  name: "fc6"
  type: "InnerProduct"
  bottom: "pool5"
  top: "fc6"
  param {
    lr_mult: 1
    decay_mult: 1
  }
  param {
    lr_mult: 2
    decay_mult: 0
  }
  inner_product_param {
    num_output: 4096
    weight_filler {
      type: "gaussian"
      std: 0.005
    }
    bias_filler {
      type: "constant"
      value: 1
    }
  }
}
layer {
  name: "relu6"
  type: "ReLU"
  bottom: "fc6"
  top: "fc6"
}
layer {
  name: "drop6"
  type: "Dropout"
  bottom: "fc6"
  top: "fc6"
  dropout_param {
    dropout_ratio: 0.5
  }
}
layer {
  name: "fc7"
  type: "InnerProduct"
  bottom: "fc6"
  top: "fc7"
  param {
    lr_mult: 1
    decay_mult: 1
  }
  param {
    lr_mult: 2
    decay_mult: 0
  }
  inner_product_param {
    num_output: 4096
    weight_filler {
      type: "gaussian"
      std: 0.005
    }
    bias_filler {
      type: "constant"
      value: 1
    }
  }
}
layer {
  name: "relu7"
  type: "ReLU"
  bottom: "fc7"
  top: "fc7"
}
layer {
  name: "drop7"
  type: "Dropout"
  bottom: "fc7"
  top: "fc7"
  dropout_param {
    dropout_ratio: 0.5
  }
}
layer {
  name: "hash_layer"
  type: "InnerProduct"
  bottom: "fc7"
  top: "hash_layer"
  # lr_mult is set to higher than for other layers, because this layer is starting from random while the others are already trained
  param {
    lr_mult: 10
    decay_mult: 1
  }
  param {
    lr_mult: 20
    decay_mult: 0
  }
  inner_product_param {
    num_output: 48
    weight_filler {
      type: "gaussian"
      std: 0.01
    }
    bias_filler {
      type: "constant"
      value: 0
    }
  }
}
layer {
  name: "tanh8"
  type: "TanH"
  bottom: "hash_layer"
  top: "hash_layer"
}

layer {
  name: "slice output"
  type: "Slice"
  bottom: "hash_layer"
  top: "output_source"
  top: "output_target"
  slice_param {
    axis: 0
  }
}

layer {
  name: "silence_target_output_y"
  type: "Silence"
  bottom: "output_target"
}
layer {
  name: "pairwise_loss"
  type: "PairwiseLoss"
  bottom: "output_source"
  bottom: "source_label"
  top: "pairwise_loss"
  loss_weight: 10
  pairwise_param {
    threshold :15.0 
    method : 0
  }
}

layer {
  name: "quantization_loss"
  type: "QuantizationLoss"
  bottom: "output_source"
  top: "quantization_loss"
  loss_weight: 0.8
  quantization_param {
    threshold: 15
  }
}


layer {
  name: "grl"
  type: "GradientScaler"
  bottom: "hash_layer"
  top: "grl"
  gradient_scaler_param {
    lower_bound: 0.0
    upper_bound: 1.0
    alpha: 10.0
    max_iter: 10000
   }
}
layer {
  name: "dc_ip11"
  type: "InnerProduct"
  bottom: "grl"
  top: "dc_ip1"
  param {
    name: "ip1_w"
    lr_mult: 10
  }
  param {
    name: "ip1_b"
    lr_mult: 20
  }
  inner_product_param {
    num_output: 1024
    weight_filler {
      type: "gaussian"
      std: 0.01
    }
    bias_filler {
      type: "constant"
    }
  }
}
layer {
  name: "dc_relu1"
  type: "ReLU"
  bottom: "dc_ip1"
  top: "dc_ip1"
}
layer {
  name: "dc_drop1"
  type: "Dropout"
  bottom: "dc_ip1"
  top: "dc_ip1"
  dropout_param {
    dropout_ratio: 0.5
  }
}
layer {
  name: "dc_ip21"
  type: "InnerProduct"
  bottom: "dc_ip1"
  top: "dc_ip2"
  param {
    lr_mult: 10
  }
  param {
    lr_mult: 20
  }
  inner_product_param {
    num_output: 1024
    weight_filler {
      type: "gaussian"
      std: 0.01
    }
    bias_filler {
      type: "constant"
    }
  }
}
layer {
  name: "dc_relu2"
  type: "ReLU"
  bottom: "dc_ip2"
  top: "dc_ip2"
}
layer {
  name: "dc_drop2"
  type: "Dropout"
  bottom: "dc_ip2"
  top: "dc_ip2"
  dropout_param {
    dropout_ratio: 0.5
  }
}
layer {
  name: "dc_ip31"
  type: "InnerProduct"
  bottom: "dc_ip2"
  top: "dc_ip3"
  param {
    lr_mult: 10
  }
  param {
    lr_mult: 20
  }
  inner_product_param {
    num_output: 1
    weight_filler {
      type: "gaussian"
      std: 0.3
    }
    bias_filler {
      type: "constant"
    }
  }
}
layer {
  name: "dc_loss"
  type: "SigmoidCrossEntropyLoss"
  bottom: "dc_ip3"
  bottom: "dc_labels"
  top: "dc_loss"
  loss_weight: 1
}

